…
clothing
The number of users: 39387
Average actions of users: 1.0457511361616778
The number of items: 16803
Average actions of items: 2.451288460393977
The number of inters: 41189
The sparsity of the dataset: 99.99377640221293%
01 Jul 12:46    INFO 

=================================


01 Jul 12:46    INFO =========1/1: Parameters:['seed', 'seed']=(999, 999)=======
/data/songfeiyang/wj/SMORE/src/models/smore.py:262: RuntimeWarning: divide by zero encountered in power
  d_inv = np.power(rowsum, -0.5).flatten()
01 Jul 12:47    INFO SMORE(
  (dropout): Dropout(p=0, inplace=False)
  (user_embedding): Embedding(39387, 64)
  (item_id_embedding): Embedding(23033, 64)
  (image_embedding): Embedding(23033, 4096)
  (text_embedding): Embedding(23033, 384)
  (image_trs): Linear(in_features=4096, out_features=64, bias=True)
  (text_trs): Linear(in_features=384, out_features=64, bias=True)
  (softmax): Softmax(dim=-1)
  (query_v): Sequential(
    (0): Linear(in_features=64, out_features=64, bias=True)
    (1): Tanh()
    (2): Linear(in_features=64, out_features=64, bias=False)
  )
  (query_t): Sequential(
    (0): Linear(in_features=64, out_features=64, bias=True)
    (1): Tanh()
    (2): Linear(in_features=64, out_features=64, bias=False)
  )
  (gate_v): Sequential(
    (0): Linear(in_features=64, out_features=64, bias=True)
    (1): Sigmoid()
  )
  (gate_t): Sequential(
    (0): Linear(in_features=64, out_features=64, bias=True)
    (1): Sigmoid()
  )
  (gate_f): Sequential(
    (0): Linear(in_features=64, out_features=64, bias=True)
    (1): Sigmoid()
  )
  (gate_image_prefer): Sequential(
    (0): Linear(in_features=64, out_features=64, bias=True)
    (1): Sigmoid()
  )
  (gate_text_prefer): Sequential(
    (0): Linear(in_features=64, out_features=64, bias=True)
    (1): Sigmoid()
  )
  (gate_fusion_prefer): Sequential(
    (0): Linear(in_features=64, out_features=64, bias=True)
    (1): Sigmoid()
  )
  (reliability_estimator): Sequential(
    (0): Linear(in_features=99, out_features=33, bias=True)
    (1): ReLU()
    (2): Linear(in_features=33, out_features=3, bias=True)
  )
)
Trainable parameters: 107514640
01 Jul 12:47    INFO epoch 0 training [time: 6.24s, train loss: 74.1566]
01 Jul 12:47    INFO epoch 0 evaluating [time: 6.55s, valid_score: 0.066100]
01 Jul 12:47    INFO valid result: 
recall@5: 0.0315    recall@10: 0.0479    recall@20: 0.0661    recall@50: 0.0928    ndcg@5: 0.0207    ndcg@10: 0.0260    ndcg@20: 0.0306    ndcg@50: 0.0359    precision@5: 0.0064    precision@10: 0.0049    precision@20: 0.0034    precision@50: 0.0019    map@5: 0.0171    map@10: 0.0193    map@20: 0.0205    map@50: 0.0214    
…
