…
====Testing====
baby
The number of users: 19445
Average actions of users: 1.1150424273592183
The number of items: 5549
Average actions of items: 3.907370697422959
The number of inters: 21682
The sparsity of the dataset: 99.97990552482683%
01 Jul 11:23    INFO 

=================================


01 Jul 11:23    INFO =========1/1: Parameters:['seed', 'seed']=(999, 999)=======
/data/songfeiyang/wj/SMORE/src/models/smore.py:262: RuntimeWarning: divide by zero encountered in power
  d_inv = np.power(rowsum, -0.5).flatten()
01 Jul 11:24    INFO SMORE(
  (dropout): Dropout(p=0, inplace=False)
  (user_embedding): Embedding(19445, 64)
  (item_id_embedding): Embedding(7050, 64)
  (image_embedding): Embedding(7050, 4096)
  (text_embedding): Embedding(7050, 384)
  (image_trs): Linear(in_features=4096, out_features=64, bias=True)
  (text_trs): Linear(in_features=384, out_features=64, bias=True)
  (softmax): Softmax(dim=-1)
  (query_v): Sequential(
    (0): Linear(in_features=64, out_features=64, bias=True)
    (1): Tanh()
    (2): Linear(in_features=64, out_features=64, bias=False)
  )
  (query_t): Sequential(
    (0): Linear(in_features=64, out_features=64, bias=True)
    (1): Tanh()
    (2): Linear(in_features=64, out_features=64, bias=False)
  )
  (gate_v): Sequential(
    (0): Linear(in_features=64, out_features=64, bias=True)
    (1): Sigmoid()
  )
  (gate_t): Sequential(
    (0): Linear(in_features=64, out_features=64, bias=True)
    (1): Sigmoid()
  )
  (gate_f): Sequential(
    (0): Linear(in_features=64, out_features=64, bias=True)
    (1): Sigmoid()
  )
  (gate_image_prefer): Sequential(
    (0): Linear(in_features=64, out_features=64, bias=True)
    (1): Sigmoid()
  )
  (gate_text_prefer): Sequential(
    (0): Linear(in_features=64, out_features=64, bias=True)
    (1): Sigmoid()
  )
  (gate_fusion_prefer): Sequential(
    (0): Linear(in_features=64, out_features=64, bias=True)
    (1): Sigmoid()
  )
  (image_band_gate): Sequential(
    (0): Linear(in_features=33, out_features=33, bias=True)
    (1): Sigmoid()
  )
  (text_band_gate): Sequential(
    (0): Linear(in_features=33, out_features=33, bias=True)
    (1): Sigmoid()
  )
  (fusion_band_gate): Sequential(
    (0): Linear(in_features=33, out_features=33, bias=True)
    (1): Sigmoid()
  )
  (reliability_estimator): Sequential(
    (0): Linear(in_features=99, out_features=33, bias=True)
    (1): ReLU()
    (2): Linear(in_features=33, out_features=3, bias=True)
  )
  (edge_weight_mlp): Sequential(
    (0): Linear(in_features=128, out_features=64, bias=True)
    (1): ReLU()
    (2): Linear(in_features=64, out_features=1, bias=True)
    (3): Softplus(beta=1, threshold=20)
  )
)
Trainable parameters: 33623287
01 Jul 11:24    INFO epoch 0 training [time: 4.29s, train loss: 44.6891]
01 Jul 11:24    INFO epoch 0 evaluating [time: 4.04s, valid_score: 0.041900]
01 Jul 11:24    INFO valid result: 
recall@5: 0.0218    recall@10: 0.0309    recall@20: 0.0419    recall@50: 0.0617    ndcg@5: 0.0150    ndcg@10: 0.0180    ndcg@20: 0.0208    ndcg@50: 0.0247    precision@5: 0.0045    precision@10: 0.0032    precision@20: 0.0022    precision@50: 0.0013    map@5: 0.0126    map@10: 0.0139    map@20: 0.0146    map@50: 0.0152    
…
