…
clothing
The number of users: 39387
Average actions of users: 1.0457511361616778
The number of items: 16803
Average actions of items: 2.451288460393977
The number of inters: 41189
The sparsity of the dataset: 99.99377640221293%
30 Jun 23:07    INFO 

=================================


30 Jun 23:07    INFO =========1/1: Parameters:['seed', 'seed']=(999, 999)=======
/data/songfeiyang/wj/SMORE/src/models/smore.py:257: RuntimeWarning: divide by zero encountered in power
  d_inv = np.power(rowsum, -0.5).flatten()
30 Jun 23:08    INFO SMORE(
  (dropout): Dropout(p=0, inplace=False)
  (user_embedding): Embedding(39387, 64)
  (item_id_embedding): Embedding(23033, 64)
  (image_embedding): Embedding(23033, 4096)
  (text_embedding): Embedding(23033, 384)
  (image_trs): Linear(in_features=4096, out_features=64, bias=True)
  (text_trs): Linear(in_features=384, out_features=64, bias=True)
  (softmax): Softmax(dim=-1)
  (query_v): Sequential(
    (0): Linear(in_features=64, out_features=64, bias=True)
    (1): Tanh()
    (2): Linear(in_features=64, out_features=64, bias=False)
  )
  (query_t): Sequential(
    (0): Linear(in_features=64, out_features=64, bias=True)
    (1): Tanh()
    (2): Linear(in_features=64, out_features=64, bias=False)
  )
  (gate_v): Sequential(
    (0): Linear(in_features=64, out_features=64, bias=True)
    (1): Sigmoid()
  )
  (gate_t): Sequential(
    (0): Linear(in_features=64, out_features=64, bias=True)
    (1): Sigmoid()
  )
  (gate_f): Sequential(
    (0): Linear(in_features=64, out_features=64, bias=True)
    (1): Sigmoid()
  )
  (gate_image_prefer): Sequential(
    (0): Linear(in_features=64, out_features=64, bias=True)
    (1): Sigmoid()
  )
  (gate_text_prefer): Sequential(
    (0): Linear(in_features=64, out_features=64, bias=True)
    (1): Sigmoid()
  )
  (gate_fusion_prefer): Sequential(
    (0): Linear(in_features=64, out_features=64, bias=True)
    (1): Sigmoid()
  )
)
Trainable parameters: 107511238
30 Jun 23:08    INFO epoch 0 training [time: 5.56s, train loss: 74.1909]
30 Jun 23:08    INFO epoch 0 evaluating [time: 6.88s, valid_score: 0.067900]
30 Jun 23:08    INFO valid result: 
recall@5: 0.0319    recall@10: 0.0488    recall@20: 0.0679    recall@50: 0.0958    ndcg@5: 0.0208    ndcg@10: 0.0263    ndcg@20: 0.0311    ndcg@50: 0.0367    precision@5: 0.0065    precision@10: 0.0049    precision@20: 0.0034    precision@50: 0.0019    map@5: 0.0172    map@10: 0.0194    map@20: 0.0207    map@50: 0.0216    
…
