…
sports
The number of users: 35598
Average actions of users: 1.1244732850160122
The number of items: 13738
Average actions of items: 2.9137429028970736
The number of inters: 40029
The sparsity of the dataset: 99.99181486908563%
02 Jul 12:40    INFO 

=================================


02 Jul 12:40    INFO =========1/1: Parameters:['seed', 'seed']=(999, 999)=======
/data/songfeiyang/wj/SMORE/src/models/smore.py:268: RuntimeWarning: divide by zero encountered in power
  d_inv = np.power(rowsum, -0.5).flatten()
02 Jul 12:41    INFO SMORE(
  (dropout): Dropout(p=0, inplace=False)
  (user_embedding): Embedding(35598, 64)
  (item_id_embedding): Embedding(18357, 64)
  (image_embedding): Embedding(18357, 4096)
  (text_embedding): Embedding(18357, 384)
  (image_trs): Linear(in_features=4096, out_features=64, bias=True)
  (text_trs): Linear(in_features=384, out_features=64, bias=True)
  (softmax): Softmax(dim=-1)
  (query_v): Sequential(
    (0): Linear(in_features=64, out_features=64, bias=True)
    (1): Tanh()
    (2): Linear(in_features=64, out_features=64, bias=False)
  )
  (query_t): Sequential(
    (0): Linear(in_features=64, out_features=64, bias=True)
    (1): Tanh()
    (2): Linear(in_features=64, out_features=64, bias=False)
  )
  (gate_v): Sequential(
    (0): Linear(in_features=64, out_features=64, bias=True)
    (1): Sigmoid()
  )
  (gate_t): Sequential(
    (0): Linear(in_features=64, out_features=64, bias=True)
    (1): Sigmoid()
  )
  (gate_f): Sequential(
    (0): Linear(in_features=64, out_features=64, bias=True)
    (1): Sigmoid()
  )
  (gate_image_prefer): Sequential(
    (0): Linear(in_features=64, out_features=64, bias=True)
    (1): Sigmoid()
  )
  (gate_text_prefer): Sequential(
    (0): Linear(in_features=64, out_features=64, bias=True)
    (1): Sigmoid()
  )
  (gate_fusion_prefer): Sequential(
    (0): Linear(in_features=64, out_features=64, bias=True)
    (1): Sigmoid()
  )
)
Trainable parameters: 86020998
02 Jul 12:41    INFO epoch 0 training [time: 5.37s, train loss: 81.9304]
02 Jul 12:41    INFO epoch 0 evaluating [time: 5.89s, valid_score: 0.055700]
02 Jul 12:41    INFO valid result: 
recall@5: 0.0263    recall@10: 0.0396    recall@20: 0.0557    recall@50: 0.0821    ndcg@5: 0.0181    ndcg@10: 0.0224    ndcg@20: 0.0265    ndcg@50: 0.0318    precision@5: 0.0055    precision@10: 0.0041    precision@20: 0.0029    precision@50: 0.0017    map@5: 0.0152    map@10: 0.0169    map@20: 0.0180    map@50: 0.0189    
…
