…
Average actions of items: 3.749589640707642
The number of inters: 20559
The sparsity of the dataset: 99.98071694707788%
Fri 03 Jul 2026 11:35:23 INFO 
====Testing====
baby
The number of users: 19445
Average actions of users: 1.1150424273592183
The number of items: 5549
Average actions of items: 3.907370697422959
The number of inters: 21682
The sparsity of the dataset: 99.97990552482683%
Fri 03 Jul 2026 11:35:31 INFO 

=================================


Fri 03 Jul 2026 11:35:31 INFO =========1/1: Parameters:['seed', 'seed']=(42, 42)=======
Fri 03 Jul 2026 11:35:40 INFO SMORE(
  (dropout): Dropout(p=0, inplace=False)
  (user_embedding): Embedding(19445, 64)
  (item_id_embedding): Embedding(7050, 64)
  (image_embedding): Embedding(7050, 4096)
  (text_embedding): Embedding(7050, 384)
  (image_trs): Linear(in_features=4096, out_features=64, bias=True)
  (text_trs): Linear(in_features=384, out_features=64, bias=True)
  (softmax): Softmax(dim=-1)
  (query_v): Sequential(
    (0): Linear(in_features=64, out_features=64, bias=True)
    (1): Tanh()
    (2): Linear(in_features=64, out_features=64, bias=False)
  )
  (query_t): Sequential(
    (0): Linear(in_features=64, out_features=64, bias=True)
    (1): Tanh()
    (2): Linear(in_features=64, out_features=64, bias=False)
  )
  (gate_v): Sequential(
    (0): Linear(in_features=64, out_features=64, bias=True)
    (1): Sigmoid()
  )
  (gate_t): Sequential(
    (0): Linear(in_features=64, out_features=64, bias=True)
    (1): Sigmoid()
  )
  (gate_f): Sequential(
    (0): Linear(in_features=64, out_features=64, bias=True)
    (1): Sigmoid()
  )
  (gate_image_prefer): Sequential(
    (0): Linear(in_features=64, out_features=64, bias=True)
    (1): Sigmoid()
  )
  (gate_text_prefer): Sequential(
    (0): Linear(in_features=64, out_features=64, bias=True)
    (1): Sigmoid()
  )
  (gate_fusion_prefer): Sequential(
    (0): Linear(in_features=64, out_features=64, bias=True)
    (1): Sigmoid()
  )
)
Trainable parameters: 33608198
Fri 03 Jul 2026 11:35:44 INFO epoch 0 training [time: 3.53s, train loss: 44.7123]
Fri 03 Jul 2026 11:35:51 INFO epoch 0 evaluating [time: 3.37s, valid_score: 0.040700]
Fri 03 Jul 2026 11:35:51 INFO valid result: 
recall@5: 0.0198    recall@10: 0.0287    recall@20: 0.0407    recall@50: 0.0621    ndcg@5: 0.0133    ndcg@10: 0.0162    ndcg@20: 0.0193    ndcg@50: 0.0236    precision@5: 0.0041    precision@10: 0.0030    precision@20: 0.0021    precision@50: 0.0013    map@5: 0.0110    map@10: 0.0121    map@20: 0.0130    map@50: 0.0137    
…
