…
The number of inters: 40150
The sparsity of the dataset: 99.99389670773579%
Fri 03 Jul 2026 15:30:46 INFO 
====Testing====
clothing
The number of users: 39387
Average actions of users: 1.0457511361616778
The number of items: 16803
Average actions of items: 2.451288460393977
The number of inters: 41189
The sparsity of the dataset: 99.99377640221293%
Fri 03 Jul 2026 15:31:02 INFO 

=================================


Fri 03 Jul 2026 15:31:02 INFO =========1/1: Parameters:['seed', 'seed']=(42, 42)=======
Fri 03 Jul 2026 15:31:52 INFO SMORE(
  (dropout): Dropout(p=0, inplace=False)
  (user_embedding): Embedding(39387, 64)
  (item_id_embedding): Embedding(23033, 64)
  (image_embedding): Embedding(23033, 4096)
  (text_embedding): Embedding(23033, 384)
  (image_trs): Linear(in_features=4096, out_features=64, bias=True)
  (text_trs): Linear(in_features=384, out_features=64, bias=True)
  (softmax): Softmax(dim=-1)
  (query_v): Sequential(
    (0): Linear(in_features=64, out_features=64, bias=True)
    (1): Tanh()
    (2): Linear(in_features=64, out_features=64, bias=False)
  )
  (query_t): Sequential(
    (0): Linear(in_features=64, out_features=64, bias=True)
    (1): Tanh()
    (2): Linear(in_features=64, out_features=64, bias=False)
  )
  (gate_v): Sequential(
    (0): Linear(in_features=64, out_features=64, bias=True)
    (1): Sigmoid()
  )
  (gate_t): Sequential(
    (0): Linear(in_features=64, out_features=64, bias=True)
    (1): Sigmoid()
  )
  (gate_f): Sequential(
    (0): Linear(in_features=64, out_features=64, bias=True)
    (1): Sigmoid()
  )
  (gate_image_prefer): Sequential(
    (0): Linear(in_features=64, out_features=64, bias=True)
    (1): Sigmoid()
  )
  (gate_text_prefer): Sequential(
    (0): Linear(in_features=64, out_features=64, bias=True)
    (1): Sigmoid()
  )
  (gate_fusion_prefer): Sequential(
    (0): Linear(in_features=64, out_features=64, bias=True)
    (1): Sigmoid()
  )
)
Trainable parameters: 107511238
Fri 03 Jul 2026 15:31:58 INFO epoch 0 training [time: 5.45s, train loss: 74.1912]
Fri 03 Jul 2026 15:32:12 INFO epoch 0 evaluating [time: 7.01s, valid_score: 0.067200]
Fri 03 Jul 2026 15:32:12 INFO valid result: 
recall@5: 0.0315    recall@10: 0.0475    recall@20: 0.0672    recall@50: 0.0958    ndcg@5: 0.0206    ndcg@10: 0.0258    ndcg@20: 0.0308    ndcg@50: 0.0365    precision@5: 0.0064    precision@10: 0.0048    precision@20: 0.0034    precision@50: 0.0019    map@5: 0.0170    map@10: 0.0191    map@20: 0.0204    map@50: 0.0214    
…
