…
The number of inters: 40150
The sparsity of the dataset: 99.99389670773579%
Thu 02 Jul 2026 18:50:55 INFO 
====Testing====
clothing
The number of users: 39387
Average actions of users: 1.0457511361616778
The number of items: 16803
Average actions of items: 2.451288460393977
The number of inters: 41189
The sparsity of the dataset: 99.99377640221293%
Thu 02 Jul 2026 18:51:10 INFO 

=================================


Thu 02 Jul 2026 18:51:10 INFO =========1/1: Parameters:['seed', 'seed']=(42, 42)=======
Thu 02 Jul 2026 18:52:00 INFO SMORE(
  (dropout): Dropout(p=0, inplace=False)
  (user_embedding): Embedding(39387, 64)
  (item_id_embedding): Embedding(23033, 64)
  (image_embedding): Embedding(23033, 4096)
  (text_embedding): Embedding(23033, 384)
  (image_trs): Linear(in_features=4096, out_features=64, bias=True)
  (text_trs): Linear(in_features=384, out_features=64, bias=True)
  (softmax): Softmax(dim=-1)
  (query_v): Sequential(
    (0): Linear(in_features=64, out_features=64, bias=True)
    (1): Tanh()
    (2): Linear(in_features=64, out_features=64, bias=False)
  )
  (query_t): Sequential(
    (0): Linear(in_features=64, out_features=64, bias=True)
    (1): Tanh()
    (2): Linear(in_features=64, out_features=64, bias=False)
  )
  (gate_v): Sequential(
    (0): Linear(in_features=64, out_features=64, bias=True)
    (1): Sigmoid()
  )
  (gate_t): Sequential(
    (0): Linear(in_features=64, out_features=64, bias=True)
    (1): Sigmoid()
  )
  (gate_f): Sequential(
    (0): Linear(in_features=64, out_features=64, bias=True)
    (1): Sigmoid()
  )
  (gate_image_prefer): Sequential(
    (0): Linear(in_features=64, out_features=64, bias=True)
    (1): Sigmoid()
  )
  (gate_text_prefer): Sequential(
    (0): Linear(in_features=64, out_features=64, bias=True)
    (1): Sigmoid()
  )
  (gate_fusion_prefer): Sequential(
    (0): Linear(in_features=64, out_features=64, bias=True)
    (1): Sigmoid()
  )
)
Trainable parameters: 107511238
Thu 02 Jul 2026 18:52:07 INFO epoch 0 training [time: 6.44s, train loss: 74.3764]
Thu 02 Jul 2026 18:52:20 INFO epoch 0 evaluating [time: 6.51s, valid_score: 0.070500]
Thu 02 Jul 2026 18:52:20 INFO valid result: 
recall@5: 0.0327    recall@10: 0.0497    recall@20: 0.0705    recall@50: 0.1015    ndcg@5: 0.0215    ndcg@10: 0.0270    ndcg@20: 0.0322    ndcg@50: 0.0384    precision@5: 0.0066    precision@10: 0.0050    precision@20: 0.0036    precision@50: 0.0021    map@5: 0.0177    map@10: 0.0200    map@20: 0.0214    map@50: 0.0224    
…
