…
The number of inters: 40150
The sparsity of the dataset: 99.99389670773579%
Thu 02 Jul 2026 22:13:33 INFO 
====Testing====
clothing
The number of users: 39387
Average actions of users: 1.0457511361616778
The number of items: 16803
Average actions of items: 2.451288460393977
The number of inters: 41189
The sparsity of the dataset: 99.99377640221293%
Thu 02 Jul 2026 22:13:54 INFO 

=================================


Thu 02 Jul 2026 22:13:54 INFO =========1/1: Parameters:['seed', 'seed']=(2024, 2024)=======
Thu 02 Jul 2026 22:14:48 INFO SMORE(
  (dropout): Dropout(p=0, inplace=False)
  (user_embedding): Embedding(39387, 64)
  (item_id_embedding): Embedding(23033, 64)
  (image_embedding): Embedding(23033, 4096)
  (text_embedding): Embedding(23033, 384)
  (image_trs): Linear(in_features=4096, out_features=64, bias=True)
  (text_trs): Linear(in_features=384, out_features=64, bias=True)
  (softmax): Softmax(dim=-1)
  (query_v): Sequential(
    (0): Linear(in_features=64, out_features=64, bias=True)
    (1): Tanh()
    (2): Linear(in_features=64, out_features=64, bias=False)
  )
  (query_t): Sequential(
    (0): Linear(in_features=64, out_features=64, bias=True)
    (1): Tanh()
    (2): Linear(in_features=64, out_features=64, bias=False)
  )
  (gate_v): Sequential(
    (0): Linear(in_features=64, out_features=64, bias=True)
    (1): Sigmoid()
  )
  (gate_t): Sequential(
    (0): Linear(in_features=64, out_features=64, bias=True)
    (1): Sigmoid()
  )
  (gate_f): Sequential(
    (0): Linear(in_features=64, out_features=64, bias=True)
    (1): Sigmoid()
  )
  (gate_image_prefer): Sequential(
    (0): Linear(in_features=64, out_features=64, bias=True)
    (1): Sigmoid()
  )
  (gate_text_prefer): Sequential(
    (0): Linear(in_features=64, out_features=64, bias=True)
    (1): Sigmoid()
  )
  (gate_fusion_prefer): Sequential(
    (0): Linear(in_features=64, out_features=64, bias=True)
    (1): Sigmoid()
  )
)
Trainable parameters: 107511238
Thu 02 Jul 2026 22:14:54 INFO epoch 0 training [time: 5.53s, train loss: 74.4287]
Thu 02 Jul 2026 22:15:07 INFO epoch 0 evaluating [time: 6.70s, valid_score: 0.069300]
Thu 02 Jul 2026 22:15:07 INFO valid result: 
recall@5: 0.0316    recall@10: 0.0481    recall@20: 0.0693    recall@50: 0.0991    ndcg@5: 0.0206    ndcg@10: 0.0259    ndcg@20: 0.0313    ndcg@50: 0.0372    precision@5: 0.0064    precision@10: 0.0049    precision@20: 0.0035    precision@50: 0.0020    map@5: 0.0170    map@10: 0.0191    map@20: 0.0206    map@50: 0.0215    
…
