…
The number of inters: 40150
The sparsity of the dataset: 99.99389670773579%
Wed 01 Jul 2026 00:45:35 INFO 
====Testing====
clothing
The number of users: 39387
Average actions of users: 1.0457511361616778
The number of items: 16803
Average actions of items: 2.451288460393977
The number of inters: 41189
The sparsity of the dataset: 99.99377640221293%
Wed 01 Jul 2026 00:45:50 INFO 

=================================


Wed 01 Jul 2026 00:45:50 INFO =========1/1: Parameters:['seed', 'seed']=(999, 999)=======
Wed 01 Jul 2026 00:46:41 INFO SMORE(
  (dropout): Dropout(p=0, inplace=False)
  (user_embedding): Embedding(39387, 64)
  (item_id_embedding): Embedding(23033, 64)
  (image_embedding): Embedding(23033, 4096)
  (text_embedding): Embedding(23033, 384)
  (image_trs): Linear(in_features=4096, out_features=64, bias=True)
  (text_trs): Linear(in_features=384, out_features=64, bias=True)
  (softmax): Softmax(dim=-1)
  (query_v): Sequential(
    (0): Linear(in_features=64, out_features=64, bias=True)
    (1): Tanh()
    (2): Linear(in_features=64, out_features=64, bias=False)
  )
  (query_t): Sequential(
    (0): Linear(in_features=64, out_features=64, bias=True)
    (1): Tanh()
    (2): Linear(in_features=64, out_features=64, bias=False)
  )
  (gate_v): Sequential(
    (0): Linear(in_features=64, out_features=64, bias=True)
    (1): Sigmoid()
  )
  (gate_t): Sequential(
    (0): Linear(in_features=64, out_features=64, bias=True)
    (1): Sigmoid()
  )
  (gate_f): Sequential(
    (0): Linear(in_features=64, out_features=64, bias=True)
    (1): Sigmoid()
  )
  (gate_image_prefer): Sequential(
    (0): Linear(in_features=64, out_features=64, bias=True)
    (1): Sigmoid()
  )
  (gate_text_prefer): Sequential(
    (0): Linear(in_features=64, out_features=64, bias=True)
    (1): Sigmoid()
  )
  (gate_fusion_prefer): Sequential(
    (0): Linear(in_features=64, out_features=64, bias=True)
    (1): Sigmoid()
  )
  (edge_weight_mlp): Sequential(
    (0): Linear(in_features=128, out_features=64, bias=True)
    (1): ReLU()
    (2): Linear(in_features=64, out_features=1, bias=True)
    (3): Softplus(beta=1, threshold=20)
  )
)
Trainable parameters: 107519559
