…
The number of inters: 40150
The sparsity of the dataset: 99.99389670773579%
Fri 03 Jul 2026 09:12:46 INFO 
====Testing====
clothing
The number of users: 39387
Average actions of users: 1.0457511361616778
The number of items: 16803
Average actions of items: 2.451288460393977
The number of inters: 41189
The sparsity of the dataset: 99.99377640221293%
Fri 03 Jul 2026 09:13:01 INFO 

=================================


Fri 03 Jul 2026 09:13:01 INFO =========1/1: Parameters:['seed', 'seed']=(999, 999)=======
Fri 03 Jul 2026 09:13:50 INFO SMORE(
  (dropout): Dropout(p=0, inplace=False)
  (user_embedding): Embedding(39387, 64)
  (item_id_embedding): Embedding(23033, 64)
  (image_embedding): Embedding(23033, 4096)
  (text_embedding): Embedding(23033, 384)
  (image_trs): Linear(in_features=4096, out_features=64, bias=True)
  (text_trs): Linear(in_features=384, out_features=64, bias=True)
  (softmax): Softmax(dim=-1)
  (query_v): Sequential(
    (0): Linear(in_features=64, out_features=64, bias=True)
    (1): Tanh()
    (2): Linear(in_features=64, out_features=64, bias=False)
  )
  (query_t): Sequential(
    (0): Linear(in_features=64, out_features=64, bias=True)
    (1): Tanh()
    (2): Linear(in_features=64, out_features=64, bias=False)
  )
  (gate_v): Sequential(
    (0): Linear(in_features=64, out_features=64, bias=True)
    (1): Sigmoid()
  )
  (gate_t): Sequential(
    (0): Linear(in_features=64, out_features=64, bias=True)
    (1): Sigmoid()
  )
  (gate_f): Sequential(
    (0): Linear(in_features=64, out_features=64, bias=True)
    (1): Sigmoid()
  )
  (gate_image_prefer): Sequential(
    (0): Linear(in_features=64, out_features=64, bias=True)
    (1): Sigmoid()
  )
  (gate_text_prefer): Sequential(
    (0): Linear(in_features=64, out_features=64, bias=True)
    (1): Sigmoid()
  )
  (gate_fusion_prefer): Sequential(
    (0): Linear(in_features=64, out_features=64, bias=True)
    (1): Sigmoid()
  )
  (image_band_gate): Sequential(
    (0): Linear(in_features=33, out_features=33, bias=True)
    (1): Sigmoid()
  )
  (text_band_gate): Sequential(
    (0): Linear(in_features=33, out_features=33, bias=True)
    (1): Sigmoid()
  )
  (fusion_band_gate): Sequential(
    (0): Linear(in_features=33, out_features=33, bias=True)
    (1): Sigmoid()
  )
)
Trainable parameters: 107514604
Fri 03 Jul 2026 09:13:57 INFO epoch 0 training [time: 6.02s, train loss: 74.2157]
Fri 03 Jul 2026 09:14:09 INFO epoch 0 evaluating [time: 6.50s, valid_score: 0.068500]
Fri 03 Jul 2026 09:14:09 INFO valid result: 
recall@5: 0.0312    recall@10: 0.0489    recall@20: 0.0685    recall@50: 0.0968    ndcg@5: 0.0206    ndcg@10: 0.0263    ndcg@20: 0.0313    ndcg@50: 0.0369    precision@5: 0.0063    precision@10: 0.0050    precision@20: 0.0035    precision@50: 0.0020    map@5: 0.0171    map@10: 0.0194    map@20: 0.0208    map@50: 0.0217    
…
