…
The number of inters: 40150
The sparsity of the dataset: 99.99389670773579%
Wed 01 Jul 2026 22:40:07 INFO 
====Testing====
clothing
The number of users: 39387
Average actions of users: 1.0457511361616778
The number of items: 16803
Average actions of items: 2.451288460393977
The number of inters: 41189
The sparsity of the dataset: 99.99377640221293%
Wed 01 Jul 2026 22:40:24 INFO 

=================================


Wed 01 Jul 2026 22:40:24 INFO =========1/1: Parameters:['seed', 'seed']=(2024, 2024)=======
Wed 01 Jul 2026 22:41:16 INFO SMORE(
  (dropout): Dropout(p=0, inplace=False)
  (user_embedding): Embedding(39387, 64)
  (item_id_embedding): Embedding(23033, 64)
  (image_embedding): Embedding(23033, 4096)
  (text_embedding): Embedding(23033, 384)
  (image_trs): Linear(in_features=4096, out_features=64, bias=True)
  (text_trs): Linear(in_features=384, out_features=64, bias=True)
  (softmax): Softmax(dim=-1)
  (query_v): Sequential(
    (0): Linear(in_features=64, out_features=64, bias=True)
    (1): Tanh()
    (2): Linear(in_features=64, out_features=64, bias=False)
  )
  (query_t): Sequential(
    (0): Linear(in_features=64, out_features=64, bias=True)
    (1): Tanh()
    (2): Linear(in_features=64, out_features=64, bias=False)
  )
  (gate_v): Sequential(
    (0): Linear(in_features=64, out_features=64, bias=True)
    (1): Sigmoid()
  )
  (gate_t): Sequential(
    (0): Linear(in_features=64, out_features=64, bias=True)
    (1): Sigmoid()
  )
  (gate_f): Sequential(
    (0): Linear(in_features=64, out_features=64, bias=True)
    (1): Sigmoid()
  )
  (gate_image_prefer): Sequential(
    (0): Linear(in_features=64, out_features=64, bias=True)
    (1): Sigmoid()
  )
  (gate_text_prefer): Sequential(
    (0): Linear(in_features=64, out_features=64, bias=True)
    (1): Sigmoid()
  )
  (gate_fusion_prefer): Sequential(
    (0): Linear(in_features=64, out_features=64, bias=True)
    (1): Sigmoid()
  )
)
Trainable parameters: 107511238
Wed 01 Jul 2026 22:41:26 INFO epoch 0 training [time: 9.65s, train loss: 74.2199]
Wed 01 Jul 2026 22:41:58 INFO epoch 0 evaluating [time: 11.12s, valid_score: 0.068400]
Wed 01 Jul 2026 22:41:58 INFO valid result: 
recall@5: 0.0317    recall@10: 0.0474    recall@20: 0.0684    recall@50: 0.0970    ndcg@5: 0.0207    ndcg@10: 0.0258    ndcg@20: 0.0311    ndcg@50: 0.0368    precision@5: 0.0064    precision@10: 0.0048    precision@20: 0.0035    precision@50: 0.0020    map@5: 0.0171    map@10: 0.0192    map@20: 0.0206    map@50: 0.0215    
…
