…
Average actions of items: 3.749589640707642
The number of inters: 20559
The sparsity of the dataset: 99.98071694707788%
Wed 01 Jul 2026 10:49:11 INFO 
====Testing====
baby
The number of users: 19445
Average actions of users: 1.1150424273592183
The number of items: 5549
Average actions of items: 3.907370697422959
The number of inters: 21682
The sparsity of the dataset: 99.97990552482683%
Wed 01 Jul 2026 10:49:20 INFO 

=================================


Wed 01 Jul 2026 10:49:20 INFO =========1/1: Parameters:['seed', 'seed']=(999, 999)=======
Wed 01 Jul 2026 10:49:29 INFO SMORE(
  (dropout): Dropout(p=0, inplace=False)
  (user_embedding): Embedding(19445, 64)
  (item_id_embedding): Embedding(7050, 64)
  (image_embedding): Embedding(7050, 4096)
  (text_embedding): Embedding(7050, 384)
  (image_trs): Linear(in_features=4096, out_features=64, bias=True)
  (text_trs): Linear(in_features=384, out_features=64, bias=True)
  (softmax): Softmax(dim=-1)
  (query_v): Sequential(
    (0): Linear(in_features=64, out_features=64, bias=True)
    (1): Tanh()
    (2): Linear(in_features=64, out_features=64, bias=False)
  )
  (query_t): Sequential(
    (0): Linear(in_features=64, out_features=64, bias=True)
    (1): Tanh()
    (2): Linear(in_features=64, out_features=64, bias=False)
  )
  (gate_v): Sequential(
    (0): Linear(in_features=64, out_features=64, bias=True)
    (1): Sigmoid()
  )
  (gate_t): Sequential(
    (0): Linear(in_features=64, out_features=64, bias=True)
    (1): Sigmoid()
  )
  (gate_f): Sequential(
    (0): Linear(in_features=64, out_features=64, bias=True)
    (1): Sigmoid()
  )
  (gate_image_prefer): Sequential(
    (0): Linear(in_features=64, out_features=64, bias=True)
    (1): Sigmoid()
  )
  (gate_text_prefer): Sequential(
    (0): Linear(in_features=64, out_features=64, bias=True)
    (1): Sigmoid()
  )
  (gate_fusion_prefer): Sequential(
    (0): Linear(in_features=64, out_features=64, bias=True)
    (1): Sigmoid()
  )
  (reliability_estimator): Sequential(
    (0): Linear(in_features=99, out_features=33, bias=True)
    (1): ReLU()
    (2): Linear(in_features=33, out_features=3, bias=True)
  )
)
Trainable parameters: 33611600
Wed 01 Jul 2026 10:49:33 INFO epoch 0 training [time: 3.59s, train loss: 44.6292]
Wed 01 Jul 2026 10:49:39 INFO epoch 0 evaluating [time: 3.39s, valid_score: 0.040300]
Wed 01 Jul 2026 10:49:39 INFO valid result: 
recall@5: 0.0210    recall@10: 0.0291    recall@20: 0.0403    recall@50: 0.0587    ndcg@5: 0.0145    ndcg@10: 0.0171    ndcg@20: 0.0200    ndcg@50: 0.0236    precision@5: 0.0043    precision@10: 0.0030    precision@20: 0.0021    precision@50: 0.0012    map@5: 0.0122    map@10: 0.0133    map@20: 0.0141    map@50: 0.0146    
…
