…
The number of inters: 40150
The sparsity of the dataset: 99.99389670773579%
Thu 02 Jul 2026 15:06:20 INFO 
====Testing====
clothing
The number of users: 39387
Average actions of users: 1.0457511361616778
The number of items: 16803
Average actions of items: 2.451288460393977
The number of inters: 41189
The sparsity of the dataset: 99.99377640221293%
Thu 02 Jul 2026 15:06:35 INFO 

=================================


Thu 02 Jul 2026 15:06:35 INFO =========1/1: Parameters:['seed', 'seed']=(999, 999)=======
Thu 02 Jul 2026 15:07:26 INFO SMORE(
  (dropout): Dropout(p=0, inplace=False)
  (user_embedding): Embedding(39387, 64)
  (item_id_embedding): Embedding(23033, 64)
  (image_embedding): Embedding(23033, 4096)
  (text_embedding): Embedding(23033, 384)
  (image_trs): Linear(in_features=4096, out_features=64, bias=True)
  (text_trs): Linear(in_features=384, out_features=64, bias=True)
  (softmax): Softmax(dim=-1)
  (query_v): Sequential(
    (0): Linear(in_features=64, out_features=64, bias=True)
    (1): Tanh()
    (2): Linear(in_features=64, out_features=64, bias=False)
  )
  (query_t): Sequential(
    (0): Linear(in_features=64, out_features=64, bias=True)
    (1): Tanh()
    (2): Linear(in_features=64, out_features=64, bias=False)
  )
  (gate_v): Sequential(
    (0): Linear(in_features=64, out_features=64, bias=True)
    (1): Sigmoid()
  )
  (gate_t): Sequential(
    (0): Linear(in_features=64, out_features=64, bias=True)
    (1): Sigmoid()
  )
  (gate_f): Sequential(
    (0): Linear(in_features=64, out_features=64, bias=True)
    (1): Sigmoid()
  )
  (gate_image_prefer): Sequential(
    (0): Linear(in_features=64, out_features=64, bias=True)
    (1): Sigmoid()
  )
  (gate_text_prefer): Sequential(
    (0): Linear(in_features=64, out_features=64, bias=True)
    (1): Sigmoid()
  )
  (gate_fusion_prefer): Sequential(
    (0): Linear(in_features=64, out_features=64, bias=True)
    (1): Sigmoid()
  )
  (image_band_gate): Sequential(
    (0): Linear(in_features=33, out_features=33, bias=True)
    (1): Sigmoid()
  )
  (text_band_gate): Sequential(
    (0): Linear(in_features=33, out_features=33, bias=True)
    (1): Sigmoid()
  )
  (fusion_band_gate): Sequential(
    (0): Linear(in_features=33, out_features=33, bias=True)
    (1): Sigmoid()
  )
)
Trainable parameters: 107514604
Thu 02 Jul 2026 15:07:32 INFO epoch 0 training [time: 5.24s, train loss: 74.4831]
Thu 02 Jul 2026 15:07:45 INFO epoch 0 evaluating [time: 6.73s, valid_score: 0.071600]
Thu 02 Jul 2026 15:07:45 INFO valid result: 
recall@5: 0.0321    recall@10: 0.0496    recall@20: 0.0716    recall@50: 0.1031    ndcg@5: 0.0211    ndcg@10: 0.0268    ndcg@20: 0.0323    ndcg@50: 0.0386    precision@5: 0.0065    precision@10: 0.0050    precision@20: 0.0036    precision@50: 0.0021    map@5: 0.0175    map@10: 0.0198    map@20: 0.0213    map@50: 0.0223    
…
