…
The number of inters: 37899
The sparsity of the dataset: 99.99202039826986%
Wed 01 Jul 2026 16:48:01 INFO 
====Testing====
sports
The number of users: 35598
Average actions of users: 1.1244732850160122
The number of items: 13738
Average actions of items: 2.9137429028970736
The number of inters: 40029
The sparsity of the dataset: 99.99181486908563%
Wed 01 Jul 2026 16:48:18 INFO 

=================================


Wed 01 Jul 2026 16:48:18 INFO =========1/1: Parameters:['seed', 'seed']=(999, 999)=======
Wed 01 Jul 2026 16:48:56 INFO SMORE(
  (dropout): Dropout(p=0, inplace=False)
  (user_embedding): Embedding(35598, 64)
  (item_id_embedding): Embedding(18357, 64)
  (image_embedding): Embedding(18357, 4096)
  (text_embedding): Embedding(18357, 384)
  (image_trs): Linear(in_features=4096, out_features=64, bias=True)
  (text_trs): Linear(in_features=384, out_features=64, bias=True)
  (softmax): Softmax(dim=-1)
  (query_v): Sequential(
    (0): Linear(in_features=64, out_features=64, bias=True)
    (1): Tanh()
    (2): Linear(in_features=64, out_features=64, bias=False)
  )
  (query_t): Sequential(
    (0): Linear(in_features=64, out_features=64, bias=True)
    (1): Tanh()
    (2): Linear(in_features=64, out_features=64, bias=False)
  )
  (gate_v): Sequential(
    (0): Linear(in_features=64, out_features=64, bias=True)
    (1): Sigmoid()
  )
  (gate_t): Sequential(
    (0): Linear(in_features=64, out_features=64, bias=True)
    (1): Sigmoid()
  )
  (gate_f): Sequential(
    (0): Linear(in_features=64, out_features=64, bias=True)
    (1): Sigmoid()
  )
  (gate_image_prefer): Sequential(
    (0): Linear(in_features=64, out_features=64, bias=True)
    (1): Sigmoid()
  )
  (gate_text_prefer): Sequential(
    (0): Linear(in_features=64, out_features=64, bias=True)
    (1): Sigmoid()
  )
  (gate_fusion_prefer): Sequential(
    (0): Linear(in_features=64, out_features=64, bias=True)
    (1): Sigmoid()
  )
  (image_band_gate): Sequential(
    (0): Linear(in_features=33, out_features=33, bias=True)
    (1): Sigmoid()
  )
  (text_band_gate): Sequential(
    (0): Linear(in_features=33, out_features=33, bias=True)
    (1): Sigmoid()
  )
  (fusion_band_gate): Sequential(
    (0): Linear(in_features=33, out_features=33, bias=True)
    (1): Sigmoid()
  )
)
Trainable parameters: 86024364
Wed 01 Jul 2026 16:49:04 INFO epoch 0 training [time: 6.94s, train loss: 81.6765]
Wed 01 Jul 2026 16:49:15 INFO epoch 0 evaluating [time: 5.98s, valid_score: 0.052600]
Wed 01 Jul 2026 16:49:15 INFO valid result: 
recall@5: 0.0263    recall@10: 0.0383    recall@20: 0.0526    recall@50: 0.0777    ndcg@5: 0.0178    ndcg@10: 0.0217    ndcg@20: 0.0253    ndcg@50: 0.0304    precision@5: 0.0055    precision@10: 0.0040    precision@20: 0.0028    precision@50: 0.0016    map@5: 0.0148    map@10: 0.0164    map@20: 0.0174    map@50: 0.0182    
…
