…
The number of inters: 37899
The sparsity of the dataset: 99.99202039826986%
Thu 18 Jun 2026 20:34:38 INFO 
====Testing====
sports
The number of users: 35598
Average actions of users: 1.1244732850160122
The number of items: 13738
Average actions of items: 2.9137429028970736
The number of inters: 40029
The sparsity of the dataset: 99.99181486908563%
Thu 18 Jun 2026 20:34:54 INFO 

=================================


Thu 18 Jun 2026 20:34:54 INFO =========1/1: Parameters:['seed', 'seed']=(999, 999)=======
Thu 18 Jun 2026 20:35:40 INFO SMORE(
  (dropout): Dropout(p=0, inplace=False)
  (user_embedding): Embedding(35598, 64)
  (item_id_embedding): Embedding(18357, 64)
  (image_embedding): Embedding(18357, 4096)
  (text_embedding): Embedding(18357, 384)
  (image_trs): Linear(in_features=4096, out_features=64, bias=True)
  (text_trs): Linear(in_features=384, out_features=64, bias=True)
  (softmax): Softmax(dim=-1)
  (query_v): Sequential(
    (0): Linear(in_features=64, out_features=64, bias=True)
    (1): Tanh()
    (2): Linear(in_features=64, out_features=64, bias=False)
  )
  (query_t): Sequential(
    (0): Linear(in_features=64, out_features=64, bias=True)
    (1): Tanh()
    (2): Linear(in_features=64, out_features=64, bias=False)
  )
  (gate_v): Sequential(
    (0): Linear(in_features=64, out_features=64, bias=True)
    (1): Sigmoid()
  )
  (gate_t): Sequential(
    (0): Linear(in_features=64, out_features=64, bias=True)
    (1): Sigmoid()
  )
  (gate_f): Sequential(
    (0): Linear(in_features=64, out_features=64, bias=True)
    (1): Sigmoid()
  )
  (gate_image_prefer): Sequential(
    (0): Linear(in_features=64, out_features=64, bias=True)
    (1): Sigmoid()
  )
  (gate_text_prefer): Sequential(
    (0): Linear(in_features=64, out_features=64, bias=True)
    (1): Sigmoid()
  )
  (gate_fusion_prefer): Sequential(
    (0): Linear(in_features=64, out_features=64, bias=True)
    (1): Sigmoid()
  )
)
Trainable parameters: 86020998
Thu 18 Jun 2026 20:35:45 INFO epoch 0 training [time: 4.74s, train loss: 96.7251]
Thu 18 Jun 2026 20:35:57 INFO epoch 0 evaluating [time: 5.89s, valid_score: 0.047500]
Thu 18 Jun 2026 20:35:57 INFO valid result: 
recall@5: 0.0238    recall@10: 0.0339    recall@20: 0.0475    recall@50: 0.0679    ndcg@5: 0.0161    ndcg@10: 0.0194    ndcg@20: 0.0229    ndcg@50: 0.0270    precision@5: 0.0049    precision@10: 0.0036    precision@20: 0.0025    precision@50: 0.0014    map@5: 0.0134    map@10: 0.0148    map@20: 0.0157    map@50: 0.0164    
…
