…
The number of inters: 20559
The sparsity of the dataset: 99.98071694707788%
Thu 18 Jun 2026 15:52:03 INFO 
====Testing====
baby
The number of users: 19445
Average actions of users: 1.1150424273592183
The number of items: 5549
Average actions of items: 3.907370697422959
The number of inters: 21682
The sparsity of the dataset: 99.97990552482683%
Thu 18 Jun 2026 15:52:12 INFO 

=================================


Thu 18 Jun 2026 15:52:12 INFO =========1/1: Parameters:['seed', 'seed']=(999, 999)=======
Thu 18 Jun 2026 15:52:26 INFO SMORE(
  (dropout): Dropout(p=0.1, inplace=False)
  (user_embedding): Embedding(19445, 64)
  (item_id_embedding): Embedding(7050, 64)
  (image_embedding): Embedding(7050, 4096)
  (text_embedding): Embedding(7050, 384)
  (image_trs): Linear(in_features=4096, out_features=64, bias=True)
  (text_trs): Linear(in_features=384, out_features=64, bias=True)
  (softmax): Softmax(dim=-1)
  (query_v): Sequential(
    (0): Linear(in_features=64, out_features=64, bias=True)
    (1): Tanh()
    (2): Linear(in_features=64, out_features=64, bias=False)
  )
  (query_t): Sequential(
    (0): Linear(in_features=64, out_features=64, bias=True)
    (1): Tanh()
    (2): Linear(in_features=64, out_features=64, bias=False)
  )
  (gate_v): Sequential(
    (0): Linear(in_features=64, out_features=64, bias=True)
    (1): Sigmoid()
  )
  (gate_t): Sequential(
    (0): Linear(in_features=64, out_features=64, bias=True)
    (1): Sigmoid()
  )
  (gate_f): Sequential(
    (0): Linear(in_features=64, out_features=64, bias=True)
    (1): Sigmoid()
  )
  (gate_image_prefer): Sequential(
    (0): Linear(in_features=64, out_features=64, bias=True)
    (1): Sigmoid()
  )
  (gate_text_prefer): Sequential(
    (0): Linear(in_features=64, out_features=64, bias=True)
    (1): Sigmoid()
  )
  (gate_fusion_prefer): Sequential(
    (0): Linear(in_features=64, out_features=64, bias=True)
    (1): Sigmoid()
  )
)
Trainable parameters: 33608198
Thu 18 Jun 2026 15:52:32 INFO epoch 0 training [time: 5.22s, train loss: 44.9826]
Thu 18 Jun 2026 15:52:38 INFO epoch 0 evaluating [time: 3.19s, valid_score: 0.045100]
Thu 18 Jun 2026 15:52:38 INFO valid result: 
recall@5: 0.0228    recall@10: 0.0328    recall@20: 0.0451    recall@50: 0.0677    ndcg@5: 0.0152    ndcg@10: 0.0184    ndcg@20: 0.0216    ndcg@50: 0.0261    precision@5: 0.0047    precision@10: 0.0034    precision@20: 0.0023    precision@50: 0.0014    map@5: 0.0126    map@10: 0.0139    map@20: 0.0147    map@50: 0.0155    
…
