…
The number of inters: 37899
The sparsity of the dataset: 99.99202039826986%
Fri 03 Jul 2026 12:53:45 INFO 
====Testing====
sports
The number of users: 35598
Average actions of users: 1.1244732850160122
The number of items: 13738
Average actions of items: 2.9137429028970736
The number of inters: 40029
The sparsity of the dataset: 99.99181486908563%
Fri 03 Jul 2026 12:54:01 INFO 

=================================


Fri 03 Jul 2026 12:54:01 INFO =========1/1: Parameters:['seed', 'seed']=(42, 42)=======
Fri 03 Jul 2026 12:54:41 INFO SMORE(
  (dropout): Dropout(p=0, inplace=False)
  (user_embedding): Embedding(35598, 64)
  (item_id_embedding): Embedding(18357, 64)
  (image_embedding): Embedding(18357, 4096)
  (text_embedding): Embedding(18357, 384)
  (image_trs): Linear(in_features=4096, out_features=64, bias=True)
  (text_trs): Linear(in_features=384, out_features=64, bias=True)
  (softmax): Softmax(dim=-1)
  (query_v): Sequential(
    (0): Linear(in_features=64, out_features=64, bias=True)
    (1): Tanh()
    (2): Linear(in_features=64, out_features=64, bias=False)
  )
  (query_t): Sequential(
    (0): Linear(in_features=64, out_features=64, bias=True)
    (1): Tanh()
    (2): Linear(in_features=64, out_features=64, bias=False)
  )
  (gate_v): Sequential(
    (0): Linear(in_features=64, out_features=64, bias=True)
    (1): Sigmoid()
  )
  (gate_t): Sequential(
    (0): Linear(in_features=64, out_features=64, bias=True)
    (1): Sigmoid()
  )
  (gate_f): Sequential(
    (0): Linear(in_features=64, out_features=64, bias=True)
    (1): Sigmoid()
  )
  (gate_image_prefer): Sequential(
    (0): Linear(in_features=64, out_features=64, bias=True)
    (1): Sigmoid()
  )
  (gate_text_prefer): Sequential(
    (0): Linear(in_features=64, out_features=64, bias=True)
    (1): Sigmoid()
  )
  (gate_fusion_prefer): Sequential(
    (0): Linear(in_features=64, out_features=64, bias=True)
    (1): Sigmoid()
  )
  (image_band_gate): Sequential(
    (0): Linear(in_features=33, out_features=33, bias=True)
    (1): Sigmoid()
  )
  (text_band_gate): Sequential(
    (0): Linear(in_features=33, out_features=33, bias=True)
    (1): Sigmoid()
  )
  (fusion_band_gate): Sequential(
    (0): Linear(in_features=33, out_features=33, bias=True)
    (1): Sigmoid()
  )
)
Trainable parameters: 86024364
Fri 03 Jul 2026 12:54:48 INFO epoch 0 training [time: 6.15s, train loss: 81.6891]
Fri 03 Jul 2026 12:55:00 INFO epoch 0 evaluating [time: 6.50s, valid_score: 0.055000]
Fri 03 Jul 2026 12:55:00 INFO valid result: 
recall@5: 0.0272    recall@10: 0.0395    recall@20: 0.0550    recall@50: 0.0789    ndcg@5: 0.0184    ndcg@10: 0.0224    ndcg@20: 0.0264    ndcg@50: 0.0312    precision@5: 0.0057    precision@10: 0.0041    precision@20: 0.0029    precision@50: 0.0017    map@5: 0.0154    map@10: 0.0170    map@20: 0.0181    map@50: 0.0188    
…
