…
The number of inters: 40150
The sparsity of the dataset: 99.99389670773579%
Wed 01 Jul 2026 19:55:22 INFO 
====Testing====
clothing
The number of users: 39387
Average actions of users: 1.0457511361616778
The number of items: 16803
Average actions of items: 2.451288460393977
The number of inters: 41189
The sparsity of the dataset: 99.99377640221293%
Wed 01 Jul 2026 19:55:38 INFO 

=================================


Wed 01 Jul 2026 19:55:38 INFO =========1/1: Parameters:['seed', 'seed']=(42, 42)=======
Wed 01 Jul 2026 19:56:29 INFO SMORE(
  (dropout): Dropout(p=0, inplace=False)
  (user_embedding): Embedding(39387, 64)
  (item_id_embedding): Embedding(23033, 64)
  (image_embedding): Embedding(23033, 4096)
  (text_embedding): Embedding(23033, 384)
  (image_trs): Linear(in_features=4096, out_features=64, bias=True)
  (text_trs): Linear(in_features=384, out_features=64, bias=True)
  (softmax): Softmax(dim=-1)
  (query_v): Sequential(
    (0): Linear(in_features=64, out_features=64, bias=True)
    (1): Tanh()
    (2): Linear(in_features=64, out_features=64, bias=False)
  )
  (query_t): Sequential(
    (0): Linear(in_features=64, out_features=64, bias=True)
    (1): Tanh()
    (2): Linear(in_features=64, out_features=64, bias=False)
  )
  (gate_v): Sequential(
    (0): Linear(in_features=64, out_features=64, bias=True)
    (1): Sigmoid()
  )
  (gate_t): Sequential(
    (0): Linear(in_features=64, out_features=64, bias=True)
    (1): Sigmoid()
  )
  (gate_f): Sequential(
    (0): Linear(in_features=64, out_features=64, bias=True)
    (1): Sigmoid()
  )
  (gate_image_prefer): Sequential(
    (0): Linear(in_features=64, out_features=64, bias=True)
    (1): Sigmoid()
  )
  (gate_text_prefer): Sequential(
    (0): Linear(in_features=64, out_features=64, bias=True)
    (1): Sigmoid()
  )
  (gate_fusion_prefer): Sequential(
    (0): Linear(in_features=64, out_features=64, bias=True)
    (1): Sigmoid()
  )
  (image_band_gate): Sequential(
    (0): Linear(in_features=33, out_features=33, bias=True)
    (1): Sigmoid()
  )
  (text_band_gate): Sequential(
    (0): Linear(in_features=33, out_features=33, bias=True)
    (1): Sigmoid()
  )
  (fusion_band_gate): Sequential(
    (0): Linear(in_features=33, out_features=33, bias=True)
    (1): Sigmoid()
  )
)
Trainable parameters: 107514604
Wed 01 Jul 2026 19:56:36 INFO epoch 0 training [time: 6.17s, train loss: 74.1974]
Wed 01 Jul 2026 19:56:49 INFO epoch 0 evaluating [time: 6.53s, valid_score: 0.067100]
Wed 01 Jul 2026 19:56:49 INFO valid result: 
recall@5: 0.0312    recall@10: 0.0472    recall@20: 0.0671    recall@50: 0.0956    ndcg@5: 0.0205    ndcg@10: 0.0257    ndcg@20: 0.0307    ndcg@50: 0.0364    precision@5: 0.0063    precision@10: 0.0048    precision@20: 0.0034    precision@50: 0.0019    map@5: 0.0169    map@10: 0.0190    map@20: 0.0204    map@50: 0.0213    
…
