…
The number of inters: 40150
The sparsity of the dataset: 99.99389670773579%
Fri 03 Jul 2026 16:46:12 INFO 
====Testing====
clothing
The number of users: 39387
Average actions of users: 1.0457511361616778
The number of items: 16803
Average actions of items: 2.451288460393977
The number of inters: 41189
The sparsity of the dataset: 99.99377640221293%
Fri 03 Jul 2026 16:46:28 INFO 

=================================


Fri 03 Jul 2026 16:46:28 INFO =========1/1: Parameters:['seed', 'seed']=(42, 42)=======
Fri 03 Jul 2026 16:47:18 INFO SMORE(
  (dropout): Dropout(p=0, inplace=False)
  (user_embedding): Embedding(39387, 64)
  (item_id_embedding): Embedding(23033, 64)
  (image_embedding): Embedding(23033, 4096)
  (text_embedding): Embedding(23033, 384)
  (image_trs): Linear(in_features=4096, out_features=64, bias=True)
  (text_trs): Linear(in_features=384, out_features=64, bias=True)
  (softmax): Softmax(dim=-1)
  (query_v): Sequential(
    (0): Linear(in_features=64, out_features=64, bias=True)
    (1): Tanh()
    (2): Linear(in_features=64, out_features=64, bias=False)
  )
  (query_t): Sequential(
    (0): Linear(in_features=64, out_features=64, bias=True)
    (1): Tanh()
    (2): Linear(in_features=64, out_features=64, bias=False)
  )
  (gate_v): Sequential(
    (0): Linear(in_features=64, out_features=64, bias=True)
    (1): Sigmoid()
  )
  (gate_t): Sequential(
    (0): Linear(in_features=64, out_features=64, bias=True)
    (1): Sigmoid()
  )
  (gate_f): Sequential(
    (0): Linear(in_features=64, out_features=64, bias=True)
    (1): Sigmoid()
  )
  (gate_image_prefer): Sequential(
    (0): Linear(in_features=64, out_features=64, bias=True)
    (1): Sigmoid()
  )
  (gate_text_prefer): Sequential(
    (0): Linear(in_features=64, out_features=64, bias=True)
    (1): Sigmoid()
  )
  (gate_fusion_prefer): Sequential(
    (0): Linear(in_features=64, out_features=64, bias=True)
    (1): Sigmoid()
  )
  (image_band_gate): Sequential(
    (0): Linear(in_features=33, out_features=33, bias=True)
    (1): Sigmoid()
  )
  (text_band_gate): Sequential(
    (0): Linear(in_features=33, out_features=33, bias=True)
    (1): Sigmoid()
  )
  (fusion_band_gate): Sequential(
    (0): Linear(in_features=33, out_features=33, bias=True)
    (1): Sigmoid()
  )
)
Trainable parameters: 107514604
Fri 03 Jul 2026 16:47:24 INFO epoch 0 training [time: 5.63s, train loss: 74.2425]
Fri 03 Jul 2026 16:47:37 INFO epoch 0 evaluating [time: 6.37s, valid_score: 0.067800]
Fri 03 Jul 2026 16:47:37 INFO valid result: 
recall@5: 0.0311    recall@10: 0.0474    recall@20: 0.0678    recall@50: 0.0973    ndcg@5: 0.0206    ndcg@10: 0.0258    ndcg@20: 0.0310    ndcg@50: 0.0369    precision@5: 0.0063    precision@10: 0.0048    precision@20: 0.0034    precision@50: 0.0020    map@5: 0.0170    map@10: 0.0192    map@20: 0.0206    map@50: 0.0215    
…
