…
The number of inters: 37899
The sparsity of the dataset: 99.99202039826986%
Wed 01 Jul 2026 12:00:49 INFO 
====Testing====
sports
The number of users: 35598
Average actions of users: 1.1244732850160122
The number of items: 13738
Average actions of items: 2.9137429028970736
The number of inters: 40029
The sparsity of the dataset: 99.99181486908563%
Wed 01 Jul 2026 12:01:05 INFO 

=================================


Wed 01 Jul 2026 12:01:05 INFO =========1/1: Parameters:['seed', 'seed']=(999, 999)=======
Wed 01 Jul 2026 12:01:45 INFO SMORE(
  (dropout): Dropout(p=0, inplace=False)
  (user_embedding): Embedding(35598, 64)
  (item_id_embedding): Embedding(18357, 64)
  (image_embedding): Embedding(18357, 4096)
  (text_embedding): Embedding(18357, 384)
  (image_trs): Linear(in_features=4096, out_features=64, bias=True)
  (text_trs): Linear(in_features=384, out_features=64, bias=True)
  (softmax): Softmax(dim=-1)
  (query_v): Sequential(
    (0): Linear(in_features=64, out_features=64, bias=True)
    (1): Tanh()
    (2): Linear(in_features=64, out_features=64, bias=False)
  )
  (query_t): Sequential(
    (0): Linear(in_features=64, out_features=64, bias=True)
    (1): Tanh()
    (2): Linear(in_features=64, out_features=64, bias=False)
  )
  (gate_v): Sequential(
    (0): Linear(in_features=64, out_features=64, bias=True)
    (1): Sigmoid()
  )
  (gate_t): Sequential(
    (0): Linear(in_features=64, out_features=64, bias=True)
    (1): Sigmoid()
  )
  (gate_f): Sequential(
    (0): Linear(in_features=64, out_features=64, bias=True)
    (1): Sigmoid()
  )
  (gate_image_prefer): Sequential(
    (0): Linear(in_features=64, out_features=64, bias=True)
    (1): Sigmoid()
  )
  (gate_text_prefer): Sequential(
    (0): Linear(in_features=64, out_features=64, bias=True)
    (1): Sigmoid()
  )
  (gate_fusion_prefer): Sequential(
    (0): Linear(in_features=64, out_features=64, bias=True)
    (1): Sigmoid()
  )
  (image_band_gate): Sequential(
    (0): Linear(in_features=33, out_features=33, bias=True)
    (1): Sigmoid()
  )
  (text_band_gate): Sequential(
    (0): Linear(in_features=33, out_features=33, bias=True)
    (1): Sigmoid()
  )
  (fusion_band_gate): Sequential(
    (0): Linear(in_features=33, out_features=33, bias=True)
    (1): Sigmoid()
  )
  (reliability_estimator): Sequential(
    (0): Linear(in_features=99, out_features=33, bias=True)
    (1): ReLU()
    (2): Linear(in_features=33, out_features=3, bias=True)
  )
)
Trainable parameters: 86027766
Wed 01 Jul 2026 12:01:51 INFO epoch 0 training [time: 5.27s, train loss: 81.6448]
Wed 01 Jul 2026 12:02:07 INFO epoch 0 evaluating [time: 8.36s, valid_score: 0.053100]
Wed 01 Jul 2026 12:02:07 INFO valid result: 
recall@5: 0.0260    recall@10: 0.0378    recall@20: 0.0531    recall@50: 0.0769    ndcg@5: 0.0177    ndcg@10: 0.0215    ndcg@20: 0.0254    ndcg@50: 0.0302    precision@5: 0.0054    precision@10: 0.0040    precision@20: 0.0028    precision@50: 0.0016    map@5: 0.0147    map@10: 0.0163    map@20: 0.0173    map@50: 0.0181    
…
