…
Average actions of items: 3.749589640707642
The number of inters: 20559
The sparsity of the dataset: 99.98071694707788%
Wed 01 Jul 2026 16:27:38 INFO 
====Testing====
baby
The number of users: 19445
Average actions of users: 1.1150424273592183
The number of items: 5549
Average actions of items: 3.907370697422959
The number of inters: 21682
The sparsity of the dataset: 99.97990552482683%
Wed 01 Jul 2026 16:27:46 INFO 

=================================


Wed 01 Jul 2026 16:27:46 INFO =========1/1: Parameters:['seed', 'seed']=(999, 999)=======
Wed 01 Jul 2026 16:27:56 INFO SMORE(
  (dropout): Dropout(p=0, inplace=False)
  (user_embedding): Embedding(19445, 64)
  (item_id_embedding): Embedding(7050, 64)
  (image_embedding): Embedding(7050, 4096)
  (text_embedding): Embedding(7050, 384)
  (image_trs): Linear(in_features=4096, out_features=64, bias=True)
  (text_trs): Linear(in_features=384, out_features=64, bias=True)
  (softmax): Softmax(dim=-1)
  (query_v): Sequential(
    (0): Linear(in_features=64, out_features=64, bias=True)
    (1): Tanh()
    (2): Linear(in_features=64, out_features=64, bias=False)
  )
  (query_t): Sequential(
    (0): Linear(in_features=64, out_features=64, bias=True)
    (1): Tanh()
    (2): Linear(in_features=64, out_features=64, bias=False)
  )
  (gate_v): Sequential(
    (0): Linear(in_features=64, out_features=64, bias=True)
    (1): Sigmoid()
  )
  (gate_t): Sequential(
    (0): Linear(in_features=64, out_features=64, bias=True)
    (1): Sigmoid()
  )
  (gate_f): Sequential(
    (0): Linear(in_features=64, out_features=64, bias=True)
    (1): Sigmoid()
  )
  (gate_image_prefer): Sequential(
    (0): Linear(in_features=64, out_features=64, bias=True)
    (1): Sigmoid()
  )
  (gate_text_prefer): Sequential(
    (0): Linear(in_features=64, out_features=64, bias=True)
    (1): Sigmoid()
  )
  (gate_fusion_prefer): Sequential(
    (0): Linear(in_features=64, out_features=64, bias=True)
    (1): Sigmoid()
  )
  (image_band_gate): Sequential(
    (0): Linear(in_features=33, out_features=33, bias=True)
    (1): Sigmoid()
  )
  (text_band_gate): Sequential(
    (0): Linear(in_features=33, out_features=33, bias=True)
    (1): Sigmoid()
  )
  (fusion_band_gate): Sequential(
    (0): Linear(in_features=33, out_features=33, bias=True)
    (1): Sigmoid()
  )
)
Trainable parameters: 33611564
Wed 01 Jul 2026 16:28:00 INFO epoch 0 training [time: 3.76s, train loss: 44.6606]
Wed 01 Jul 2026 16:28:06 INFO epoch 0 evaluating [time: 3.42s, valid_score: 0.041700]
Wed 01 Jul 2026 16:28:06 INFO valid result: 
recall@5: 0.0214    recall@10: 0.0301    recall@20: 0.0417    recall@50: 0.0617    ndcg@5: 0.0146    ndcg@10: 0.0174    ndcg@20: 0.0204    ndcg@50: 0.0244    precision@5: 0.0044    precision@10: 0.0031    precision@20: 0.0022    precision@50: 0.0013    map@5: 0.0123    map@10: 0.0134    map@20: 0.0142    map@50: 0.0148    
…
