…
The number of inters: 37899
The sparsity of the dataset: 99.99202039826986%
Sat 04 Jul 2026 01:29:38 INFO 
====Testing====
sports
The number of users: 35598
Average actions of users: 1.1244732850160122
The number of items: 13738
Average actions of items: 2.9137429028970736
The number of inters: 40029
The sparsity of the dataset: 99.99181486908563%
Sat 04 Jul 2026 01:29:55 INFO 

=================================


Sat 04 Jul 2026 01:29:55 INFO =========1/1: Parameters:['seed', 'seed']=(2024, 2024)=======
Sat 04 Jul 2026 01:30:35 INFO SMORE(
  (dropout): Dropout(p=0, inplace=False)
  (user_embedding): Embedding(35598, 64)
  (item_id_embedding): Embedding(18357, 64)
  (image_embedding): Embedding(18357, 4096)
  (text_embedding): Embedding(18357, 384)
  (image_trs): Linear(in_features=4096, out_features=64, bias=True)
  (text_trs): Linear(in_features=384, out_features=64, bias=True)
  (softmax): Softmax(dim=-1)
  (query_v): Sequential(
    (0): Linear(in_features=64, out_features=64, bias=True)
    (1): Tanh()
    (2): Linear(in_features=64, out_features=64, bias=False)
  )
  (query_t): Sequential(
    (0): Linear(in_features=64, out_features=64, bias=True)
    (1): Tanh()
    (2): Linear(in_features=64, out_features=64, bias=False)
  )
  (gate_v): Sequential(
    (0): Linear(in_features=64, out_features=64, bias=True)
    (1): Sigmoid()
  )
  (gate_t): Sequential(
    (0): Linear(in_features=64, out_features=64, bias=True)
    (1): Sigmoid()
  )
  (gate_f): Sequential(
    (0): Linear(in_features=64, out_features=64, bias=True)
    (1): Sigmoid()
  )
  (gate_image_prefer): Sequential(
    (0): Linear(in_features=64, out_features=64, bias=True)
    (1): Sigmoid()
  )
  (gate_text_prefer): Sequential(
    (0): Linear(in_features=64, out_features=64, bias=True)
    (1): Sigmoid()
  )
  (gate_fusion_prefer): Sequential(
    (0): Linear(in_features=64, out_features=64, bias=True)
    (1): Sigmoid()
  )
)
Trainable parameters: 86020998
Sat 04 Jul 2026 01:30:41 INFO epoch 0 training [time: 5.90s, train loss: 81.6982]
Sat 04 Jul 2026 01:30:58 INFO epoch 0 evaluating [time: 8.40s, valid_score: 0.054200]
Sat 04 Jul 2026 01:30:58 INFO valid result: 
recall@5: 0.0271    recall@10: 0.0387    recall@20: 0.0542    recall@50: 0.0766    ndcg@5: 0.0186    ndcg@10: 0.0223    ndcg@20: 0.0263    ndcg@50: 0.0308    precision@5: 0.0056    precision@10: 0.0040    precision@20: 0.0028    precision@50: 0.0016    map@5: 0.0156    map@10: 0.0171    map@20: 0.0182    map@50: 0.0189    
…
