…
The number of inters: 20559
The sparsity of the dataset: 99.98071694707788%
Fri 03 Jul 2026 21:21:21 INFO 
====Testing====
baby
The number of users: 19445
Average actions of users: 1.1150424273592183
The number of items: 5549
Average actions of items: 3.907370697422959
The number of inters: 21682
The sparsity of the dataset: 99.97990552482683%
Fri 03 Jul 2026 21:21:30 INFO 

=================================


Fri 03 Jul 2026 21:21:30 INFO =========1/1: Parameters:['seed', 'seed']=(2024, 2024)=======
Fri 03 Jul 2026 21:21:40 INFO SMORE(
  (dropout): Dropout(p=0, inplace=False)
  (user_embedding): Embedding(19445, 64)
  (item_id_embedding): Embedding(7050, 64)
  (image_embedding): Embedding(7050, 4096)
  (text_embedding): Embedding(7050, 384)
  (image_trs): Linear(in_features=4096, out_features=64, bias=True)
  (text_trs): Linear(in_features=384, out_features=64, bias=True)
  (softmax): Softmax(dim=-1)
  (query_v): Sequential(
    (0): Linear(in_features=64, out_features=64, bias=True)
    (1): Tanh()
    (2): Linear(in_features=64, out_features=64, bias=False)
  )
  (query_t): Sequential(
    (0): Linear(in_features=64, out_features=64, bias=True)
    (1): Tanh()
    (2): Linear(in_features=64, out_features=64, bias=False)
  )
  (gate_v): Sequential(
    (0): Linear(in_features=64, out_features=64, bias=True)
    (1): Sigmoid()
  )
  (gate_t): Sequential(
    (0): Linear(in_features=64, out_features=64, bias=True)
    (1): Sigmoid()
  )
  (gate_f): Sequential(
    (0): Linear(in_features=64, out_features=64, bias=True)
    (1): Sigmoid()
  )
  (gate_image_prefer): Sequential(
    (0): Linear(in_features=64, out_features=64, bias=True)
    (1): Sigmoid()
  )
  (gate_text_prefer): Sequential(
    (0): Linear(in_features=64, out_features=64, bias=True)
    (1): Sigmoid()
  )
  (gate_fusion_prefer): Sequential(
    (0): Linear(in_features=64, out_features=64, bias=True)
    (1): Sigmoid()
  )
)
Trainable parameters: 33608198
Fri 03 Jul 2026 21:21:45 INFO epoch 0 training [time: 4.79s, train loss: 44.6605]
Fri 03 Jul 2026 21:21:51 INFO epoch 0 evaluating [time: 3.40s, valid_score: 0.042800]
Fri 03 Jul 2026 21:21:51 INFO valid result: 
recall@5: 0.0217    recall@10: 0.0317    recall@20: 0.0428    recall@50: 0.0631    ndcg@5: 0.0143    ndcg@10: 0.0175    ndcg@20: 0.0203    ndcg@50: 0.0244    precision@5: 0.0045    precision@10: 0.0033    precision@20: 0.0022    precision@50: 0.0013    map@5: 0.0117    map@10: 0.0130    map@20: 0.0138    map@50: 0.0144    
…
